Pytorch/ChurnModel.pth (torch, 2982 bytes, 5 tensors)

fc1.weight f4 [6, 11]
00000000: 3091 233d 1c83 0fbf b2bd 083c 9637 aabe
00000010: 782e b93c e7a5 c7bd e92d f73e 76eb d3be
00000020: 15c4 07bf 6f27 a53e b084 9bbd 2bf7 cf3e
00000030: 22fb bebe 04c5 a03e 67c6 5dbe 55fa df3d
00000040: ca43 6e3d e486 1f3f 77f6 ca3e 9ca1 363d
00000050: bbd7 00bf e161 3cbe 9cf8 bdbd a76e fabe
00000060: 54cb 45be 8d74 e13d 3096 d23c a1a2 613d
00000070: 09f0 d43e 25c3 85be dd18 a0be 8f09 31bf
00000080: c081 a33e e753 533d ccef 67bf 6389 a8bc
00000090: 3c4f 6e3e c007 ecbc a119 a43c fb24 8dbd
000000a0: dfe2 933d 3eb4 90bd c66d f43c 7e88 b73d
000000b0: bd92 c6bd e425 42bf 40ab 373d eccf aabe
000000c0: b543 f63d 2724 72be 6259 03bf 9292 e13c
000000d0: 3e89 3fbe 75ea 99be 2f25 873e f118 2c3d
000000e0: 4005 debe 43e3 253e 119a 21be c2b7 dd3c
000000f0: 602a b33e 2396 cf3e ac8d a93e 294c 88be
00000100: 0f2e 4f3e 7a0d 143f
0.039933383 -0.5605943 0.008346008 -0.33245534 0.022605166 -0.0974844 0.48277214 -0.4139058
-0.5303357 0.32256648 -0.075936675 0.40618262 -0.37300974 0.3140031 -0.21657716 0.10936419
0.058170117 0.623152 0.39641163 0.044587716 -0.5032918 -0.18396713 -0.09275934 -0.48912546
-0.19315845 0.110085584 0.02570638 0.055086736 0.41589382 -0.26125446 -0.3126897 -0.6915521
0.3193493 0.051593687 -0.90600276 -0.020573324 0.23272413 -0.02881229 0.020031752 -0.06891819
0.072210066 -0.070656285 0.0298375 0.08961581 -0.09695957 -0.75839067 0.04484105 -0.33361757
0.12024633 -0.23646604 -0.5130826 0.02753571 -0.18704697 -0.3006169 0.26395556 0.042015973
-0.4336338 0.16199975 -0.15781428 0.027065162 0.34993267 0.40544233 0.331159 -0.26620606
0.20232414 0.57833064

fc1.bias f4 [6]
00000000: 1627 ec3e 4a95 b63e 683f 923e a5d6 103f
00000010: a5b0 b93d 8562 623e
0.4612357 0.35660774 0.28564 0.5657752 0.090668954 0.22107895

fc2.weight f4 [6, 6]
00000000: d8b9 963e 473c 953e b2b4 f6bd fa69 ff3d
00000010: c834 363e d9e0 d23e 97c8 1b3e 45aa 933d
00000020: 7471 eb3e 5db3 e13c b252 943e 4694 f63d
00000030: 50b9 43ba e1ef ea3e a88c 65bd d604 1abf
00000040: f49d 99bf c6ba 54be 97c7 5ebe 19fe a43c
00000050: 63a9 373d aff4 a5be dbb0 8fbd 56ac a3be
00000060: 1a84 1e3e 41bc a43d 1e50 823e 85c3 c13e
00000070: 47e1 e53e 6fdf fc3e ce60 063f 4eff 983e
00000080: 5929 c93e e2f4 f23e 58b4 0b3e 27ee c4bd
0.29438663 0.2914755 -0.12046184 0.12471385 0.17793572 0.4118717 0.15213238 0.07210211
0.45984995 0.027551347 0.28969342 0.1204 -0.00074662734 0.45886138 -0.056042343 -0.6016363
-1.2001328 -0.20774373 -0.21755825 0.020140694 0.044839274 -0.3241324 -0.070161544 -0.3196742
0.1548008 0.08043719 0.2545175 0.37844482 0.44898435 0.49389216 0.5249146 0.29882282
0.39289358 0.47452456 0.13643014 -0.096157365

fc2.bias f4 [6]
00000000: 5278 a63d 29fa 6e3d a521 17be dfc7 7ebe
00000010: 0367 123d b106 c13e
0.08128418 0.05834404 -0.14758928 -0.24880932 0.03574277 0.37700418

fc3.weight f4 [1, 6]
00000000: 8945 fabe 0ff2 c9be b784 413f be4c d03c
00000010: a4f0 0abf 2e21 e8be
-0.48881176 -0.3944249 0.7559313 0.025427219 -0.5427344 -0.45337814
