Pytorch/CarPriceModel/CarPriceModel.pth (torch, 7816 bytes, 7 tensors)

layer1.weight f4 [20, 44]
00000000: 4bc6 6cbe 6978 3d3e 3e9e b03e 8f8f e93e
00000010: 9c65 babe 581c d8be 5065 a63d 5c67 0f3d
00000020: 92ec d6bc 1438 9c3d df1b 983e 6035 d1bd
00000030: 72bf 53bd 6cdf 45be 381f 44be fc15 29ba
00000040: 169d 26be bb2e 59be 68e5 05be e4fe 25be
00000050: e237 eebd 0910 89be f9b0 953e 2d91 133e
00000060: 7155 43be 96a9 2ebc 90f8 cebd 032e 0abe
00000070: 8054 4fbe cf95 a93c 9e58 4ebe 0606 273e
00000080: 4226 1dbd c23c 45be 459e 04be cdf4 093e
00000090: 2fec 6ebe d4e8 3cbe 0c95 0cbe c2a1 7fbd
000000a0: 635a 3abe bbec eebd ca15 843e aad9 16be
000000b0: 739f 88be 8ae9 bdbd 90a7 703e 2a55 d03e
000000c0: f3b2 9cbe b0f6 f2be 919d 26bd 6a47 973c
000000d0: 0e63 8fbe 7e6d 84bd ed29 05be 37ae 7abe
000000e0: e9b0 febd 9b36 12bd a56b 8b3e 0419 f13d
000000f0: 565b 2d3c 61a8 3bbe 5e00 94be c73d 2cbe
00000100: 5032 5fbe a139 8b3d aef2 69be 4750 91bd
00000110: 41cc 0dbe ddc2 80be 8ac2 0c3e 6207 643d
00000120: ab42 ab3e 4f8f c0bd 02ce 98be bb98 13be
00000130: caaf 5d3c 6510 1a3e d031 66be 949e 34be
00000140: 1d16 0e3e 8c4f 18be 4ce8 0bbe f330 1dbd
00000150: 186c dbbd e1c2 87be c722 30be 6d5c 75be
00000160: 45b9 7abe a776 21be fc1e 073d 679b 3e3e
00000170: f3a4 a23d 50db dfbe ca4c 45bd c096 2bbc
00000180: a533 10bd 02c1 01be 96be a93d b261 4cbd
00000190: ce82 26bd 04b8 59bd 5a4d 0e3d b81c 293d
000001a0: 2edd b7bc 26bb 2fbe b808 89bc fab2 24bd
000001b0: c9a6 80bc a0c1 1bbe c7e7 db3e 9cbd f43e
000001c0: 993a a73d 439e 8e3d 7482 96bc 8655 10be
000001d0: ef57 8d3e fe42 20be f6a4 503e e456 0fbe
000001e0: 4261 3c3e 7b9c 1c3e 63ea 15be 648e 39be
000001f0: 7a16 903e bb42 cebd 1888 34bd d025 11be
00000200: a38c 33be 72f6 c7be 7806 17be f590 533d
00000210: 6503 c3be 4141 28be 82bb 813e 0f5c 8c3e
00000220: 9711 b43e d503 f3be 8370 623e f24f a23b
00000230: 5060 e1bb 6b17 81be 9bbf 6dbe 7437 79be
00000240: f99e 04be 87ea 1bbe a7e9 d6ba 4936 463d
00000250: 529b a1bc 149b 3dbe 8fd1 a1bd 0d4c 5abe
00000260: 1ead 85be fc43 71be e20e 1dbe 313c 25be
00000270: 42c4 42be 46b9 fc3c 101a 45be d03b 10be
00000280: 8681 2fbe f324 b53e ff10 0cbe 728b 8cbd
00000290: d6e9 433e 87ce 213e d8a2 1ebe c4ce 79be
000002a0: 3694 31be b7ad 7dbd 53c1 63be 1c0f 963b
000002b0: b851 48bd ba42 793e 9d1c f2bd a981 83be
000002c0: 1aac bebe b816 5cbc 892b 763d 888f 983e
000002d0: 74a4 3a3c 249a cfbe 67cc 7e3d 60b5 993c
000002e0: 1d77 233d 1da4 a7bd 0481 c63d 96ad 5f3d
000002f0: bda0 623e 34c3 95bd 208c ba3d 3ce3 3f3d
00000300: c050 debc d668 923c 17ef 043c 0751 103d
00000310: 73d5 ba3d 6a39 86bd 9b82 57bd 8b56 e9bd
00000320: 5880 87bc 554d 89bb be8f af3c c191 56bd
00000330: bc18 b73d 1b1e 7c3e 6b54 0bbe 6177 d2bd
00000340: fbe2 b53d a1ea 9abd d2f5 f3bb 165e 443d
00000350: ea37 1a3b 59d2 0bbd 28bf c03d 699e 1ab9
00000360: 3db2 2abd 2116 37be aca9 033b b757 ec3d
00000370: ebf0 9b3e 20cd 733d 42bc 0e3c 20f4 163d
00000380: 3017 b03c 49ae 03be 2640 8f3d 4249 48bd
00000390: 32b0 a5bd a77f e93d c331 8f3e 0a35 22be
000003a0: 5297 033f a37a 4a3e 09bb 463e 9ab9 e2bd
000003b0: 29ea 14bb 3411 e2bd 517c 04be 74f6 c2bd
000003c0: d904 03be 474a 383d 21ab 893d ad50 753e
000003d0: f104 fbbd 9b48 febd be11 24be d716 c5bd
000003e0: 361e 3c3e 43c8 e6bd 708b 133e 88d9 2a3e
000003f0: 1386 41be 9135 c43d 83f9 26be 6077 2abe
-0.23122518 0.18502964 0.3449573 0.4561734 -0.36405647 -0.42209125 0.081247926 0.03501068
-0.026235852 0.076278836 0.29708764 -0.102152586 -0.05169625 -0.1932351 -0.19152534 -0.00064501143
-0.16270861 -0.21209233 -0.13075793 -0.16210514 -0.116317526 -0.26770046 0.29236582 0.14410849
-0.19075562 -0.01066055 -0.10106003 -0.13494115 -0.20247078 0.020701317 -0.20150992 0.16310892
-0.038366564 -0.19261459 -0.12951 0.1347229 -0.23332284 -0.18448192 -0.13728732 -0.062410124
-0.18198542 -0.116662465 0.25797874 -0.1473147 -0.2668415 -0.0927306 0.2350142 0.40689975
-0.30605277 -0.47453833 -0.04067761 0.01846667 -0.2800526 -0.064661965 -0.13004275 -0.2448052
-0.12436087 -0.035696607 0.27230564 0.117723495 0.010580858 -0.1832595 -0.2890653 -0.16820441
-0.21796536 0.06798101 -0.22846481 -0.0709539 -0.13847448 -0.2514867 0.13746086 0.055671103
0.334493 -0.09402334 -0.2984467 -0.14413731 0.013530681 0.15045317 -0.2247994 -0.17638618
0.13875623 -0.14874095 -0.13662833 -0.03837676 -0.107139766 -0.26515868 -0.17200767 -0.23961039
-0.24484737 -0.15767919 0.032988533 0.18613969 0.07941618 -0.4372201 -0.048168935 -0.010472953
-0.035205502 -0.12671283 0.082883045 -0.049897857 -0.04065209 -0.053154007 0.034741737 0.041287154
-0.022444334 -0.17161235 -0.01672779 -0.040209748 -0.01570453 -0.15210581 0.4295027 0.4780091
0.081654735 0.0696378 -0.018372752 -0.14095125 0.2760615 -0.15650555 0.20375428 -0.1399799
0.18396476 0.15294068 -0.14640193 -0.18120724 0.28142148 -0.100713216 -0.0440751 -0.1417458
-0.17534117 -0.3905521 -0.14748561 0.051651914 -0.38088527 -0.16431142 0.2533837 0.27413985
0.3516967 -0.4746386 0.22113232 0.004953378 -0.0068779364 -0.2521318 -0.23217623 -0.2433756
-0.12951268 -0.15226184 -0.0016396538 0.048391614 -0.019727383 -0.18516189 -0.07901298 -0.21318074
-0.2610864 -0.2356109 -0.15337709 -0.16136242 -0.19020179 0.030850064 -0.19248223 -0.14085317
-0.17139253 0.35379753 -0.13678358 -0.068625346 0.1913217 0.1580144 -0.15491807 -0.24395281
-0.17341694 -0.061933246 -0.22241716 0.004579438 -0.048906058 0.2434186 -0.11821864 -0.2568486
-0.37240678 -0.013433151 0.060100112 0.29797006 0.011391748 -0.40547287 0.062206652 0.018763244
0.039908517 -0.08185599 0.096925765 0.054608904 0.2213163 -0.07312623 0.09108758 0.046847567
-0.027138114 0.017872255 0.008113644 0.035233524 0.091227435 -0.065539196 -0.05261479 -0.1139346
-0.016540691 -0.004190127 0.021430846 -0.052385096 0.089402646 0.2462086 -0.13606422 -0.10276676
0.08881184 -0.07564283 -0.0074450755 0.04794129 0.0023531863 -0.03413615 0.0941146 -0.00014745597
-0.041673888 -0.17879535 0.0020090146 0.11540168 0.30457243 0.059521794 0.008711876 0.03685391
0.021495432 -0.12859453 0.06994657 -0.04889799 -0.08090247 0.11401301 0.27967653 -0.15840545
0.5140277 0.19773345 0.19407286 -0.11070557 -0.0022722578 -0.110384375 -0.12938048 -0.095196635
-0.12794818 0.04499271 0.067220934 0.23956557 -0.12256802 -0.12416192 -0.16022393 -0.09623497
0.183709 -0.11268666 0.1440866 0.16684544 -0.18898802 0.095805295 -0.16306119 -0.166471

layer1.bias f4 [20]
00000000: 2c69 293d 54c0 b038 31b1 a03d a117 2b3e
00000010: 95b8 bebe 8abd 1e3e 3d33 bdbd c7e4 183d
00000020: 978e 48be aeba c7bd 8644 033e 5d7c 043e
00000030: 5d1d 0ebe b613 c43d d9ae d03b 5d91 7d3e
00000040: 0292 7a3d 41ae 0f3e d7e4 d1be c1bd e23d
0.041360065 8.428158e-05 0.078462966 0.16708232 -0.372502 0.15501991 -0.092382886 0.037327554
-0.19585644 -0.09752403 0.12819108 0.12938066 -0.13878389 0.09574072 0.0063684997 0.24762483
0.0611744 0.14031316 -0.40994903 0.11071349

layer2.weight f4 [10, 20]
00000000: e5ef 293e c56c 6e3d f214 093d 1bde fc3d
00000010: b72e b63e 34a8 953c 2287 9ebb dffa 843e
00000020: ea35 c33e 4fab edbc f1de 963e 4ac4 333e
00000030: 33a2 7f3e d306 823e 6697 863e 50e6 ac3e
00000040: a45e 2b3e f6c1 a83e f1b6 e43e 0d48 883e
00000050: a1b6 b93c a4b9 1dbe 0d0b 073e 33ae 143e
00000060: 0bc6 833e 0694 023c 1587 303d 3ee6 89bd
00000070: 36fa 88bd a0c8 86be 8093 1e3e 1b36 5dbd
00000080: dfa1 7dbc 453d 15be 1380 ca3d d0b8 72be
00000090: dda8 f53d 7169 d5bd bc5b 61be fd54 d2bc
000000a0: 35ed c73e 96fc d43d 6482 ea3d b5ad d13d
000000b0: 036d 703e 4070 243d f7d7 433e 7ce3 99bd
000000c0: 8c20 183e ad8c 643d e768 56bc 67a0 0abe
000000d0: 941f 583e 8af7 883e b860 c93d 5d07 b83d
000000e0: 810a b5bd 854c 923e a6d3 343f 88f7 273e
000000f0: b415 3b3e 212f ca3e 5eba 613e 9d2d 823e
00000100: c36b 3a3e 1a37 fc3d d390 c03e fb7d eb3e
00000110: 92b6 573e 313d 263e d739 673e 60c2 bb3e
00000120: d366 5f3e 754f 473e a700 853e 39a3 873e
00000130: 52a5 e43e d6fb 553d 573e c73e 76c6 bf3e
00000140: 7cb0 aa3e 872a be3e 4068 d73d 11a2 a63e
00000150: 93ec a33e 5d5f f93d ec43 d53e 97ec 6f3e
00000160: 735b c03e dd43 7c3e 4bd6 b23e 9536 0e3e
00000170: 9769 133e 1cd8 763e 8ca5 ed3d 051f 01bb
00000180: c006 893d 700e b93d c669 9d3e c013 cf3e
00000190: e99f 843e 30bf c53e c929 7e3e b2c2 643e
000001a0: 2507 f33e a45c 3c3e 7bba 3e3d 0a73 ec3e
000001b0: e006 133e 66b8 d33c 972c ba3e 8e2d 8b3e
000001c0: df5f 923e d281 0f3c 23ed ae3e 7238 ce3e
000001d0: ff5d b23e 4bdb d03e 55d7 7e3e dcf3 db3e
000001e0: bcec c23e 64f5 983d 08c2 4a3e 336e b53e
000001f0: c2ed 9e3e d0f2 5f3e 07d1 283e fb81 883e
00000200: 0b52 023f da18 5e3e 6831 503e 8434 dd3d
00000210: 51bd a03e 11c8 c3bc c2fd 2d3e c6f2 533e
00000220: 81ce 12bc 86db e83c 348d 3e3f c76f 133d
00000230: ecd3 d93d 2fb9 7a3e 22ed 453e 9da6 073e
00000240: 030e b73e afa3 143e acf3 8d3e 3c89 e23e
00000250: 712f fb3e 13b2 113e d854 243e 184c ab3e
00000260: 669b b23e a1e5 39bd 1c75 8a3e d792 ce3e
00000270: 4dea cd3d c770 553e 021b fc3e 32d6 5f3e
00000280: 3fbf 003f e985 353e f71f cc3e f025 8d3e
00000290: 7de5 093e 77a4 623e 0450 7f3d e89f 8c3e
000002a0: 0655 8b3e a087 8e3e 55e9 c83c ab5e 123d
000002b0: 980f fc3e 4d8d 393e 7171 0fbd add1 853d
000002c0: 77c5 bbbc aace 2d3e 39b5 083f 7108 2a3d
000002d0: 901a 443d d480 90bd 50d3 6c3d 3f72 75bd
000002e0: 7248 173e 1c9d 94bd 8c15 223e 630d 82be
000002f0: 4536 f2bd 472b 4dbe f17d 2abe a19a 94bd
00000300: a6ce 3cbe cb84 9ebd c95b 58be dce3 d33d
00000310: 1799 49be 0f4f cebd 655b c6bd ba1f 9cbb
0.16595419 0.0582092 0.03346724 0.12347051 0.35582516 0.018268682 -0.0048378864 0.2597265
0.3812707 -0.02901235 0.29466966 0.17555347 0.24964218 0.2539583 0.26287383 0.33769464
0.16735321 0.3296048 0.44670823 0.2661747 0.022670092 -0.15402848 0.1318781 0.14519577
0.25737032 0.007969862 0.043097574 -0.06733368 -0.06688349 -0.2632494 0.15485954 -0.054006677
-0.015480488 -0.14574154 0.098877095 -0.23703313 0.11995099 -0.10420502 -0.2200765 -0.025675291
0.39048162 0.103997394 0.11450651 0.1023821 0.23479085 0.040146112 0.19125353 -0.07514092
0.14856166 0.05579822 -0.013086534 -0.13537751 0.21105796 0.26751357 0.09832901 0.089857794
-0.08839894 0.28574005 0.7063545 0.1640302 0.18269998 0.39489082 0.2204375 0.25425425
0.1820517 0.12315197 0.37610492 0.45994553 0.21065739 0.1623428 0.22580658 0.36671734
0.21816568 0.19463904 0.2597706 0.26491717 0.4465738 0.052242123 0.3891475 0.374561
0.33337772 0.3714182 0.10517931 0.32545522 0.3201643 0.12176392 0.41653383 0.23430096
0.3756977 0.24635263 0.34929118 0.13888009 0.14395748 0.24105877 0.11603841 -0.0019702327
0.066907406 0.09035957 0.3074476 0.40444756 0.25903252 0.38622427 0.24820627 0.22339895
0.47466388 0.18394715 0.04656456 0.46181518 0.14358091 0.025844764 0.36362144 0.27183193
0.2858877 0.008758979 0.34165296 0.4027744 0.34837338 0.40792307 0.2488683 0.42959487
0.3807124 0.074686795 0.1980058 0.35435638 0.3104077 0.2186997 0.16485988 0.26661667
0.5090644 0.21689168 0.20331347 0.10801032 0.31394437 -0.02389911 0.16991332 0.2069808
-0.008960367 0.02842499 0.7443421 0.03599527 0.10636124 0.24484704 0.1932874 0.13247152
0.35752878 0.14515565 0.2772497 0.44245327 0.49059632 0.14228086 0.1604799 0.33456492
0.34884185 -0.045385007 0.27042472 0.40346405 0.10054455 0.20843802 0.49239355 0.21859053
0.5029182 0.17726864 0.39868137 0.27568007 0.13466449 0.22133051 0.06233217 0.2746575
0.27213305 0.2783785 0.024525324 0.035734814 0.49230647 0.18120308 -0.035020296 0.06534133
-0.022921307 0.16973367 0.53401524 0.041511957 0.047876894 -0.07055822 0.05781871 -0.059923407
0.1477373 -0.07256529 0.15828532 -0.25400838 -0.11826757 -0.2003604 -0.16649605 -0.072560556
-0.18438205 -0.07740172 -0.21128763 0.10346195 -0.19687305 -0.10073673 -0.09685401 -0.0047645243

layer2.bias f4 [10]
00000000: f4d1 80bd 5e48 29bd e9b8 623e 392d 463e
00000010: bd95 b03e 77f6 163e db2b a93e 5157 253d
00000020: 65cd 01bd 8c46 80be
-0.062900454 -0.04132878 0.2214085 0.19353189 0.3448924 0.14742456 0.33041272 0.040366475
-0.03169002 -0.25053823

layer3.weight f4 [6, 10]
00000000: 0868 f73e 30f0 73bc 919f 6d3e 272e c93e
00000010: 5d28 093f 18ef aa3e 80db a93e 3a52 ea3e
00000020: d508 953c 08db 59be 696c 94be e8ea 62be
00000030: 41cf 1b3e 850a c4bd c7af 6ebd 11ed 23be
00000040: b6d2 97be da56 363e a890 da3d 9fc1 22bd
00000050: 30bc 8f3e 9e21 8fbe c9c2 fb3d 834a 0d3f
00000060: fd8b 3c3e fbc2 0d3f 95bd d83c e7e6 913e
00000070: 6053 e33e dacc 86bd 791a e7bc 313a dcbe
00000080: 6b59 833e da0d d63e 3098 953e 9b31 d93e
00000090: adf4 433e 43bc 783e f89e bd3e 33ec 9d3d
000000a0: 7668 24bd b15d 2bbf dfb1 5bbc da30 05be
000000b0: c96a 8e3e 9433 afbd 0669 c03e 14da d43e
000000c0: 7deb 7b3e 0fa4 06be 1a86 863c 6255 8eba
000000d0: 4223 d93e cd40 c53d c4b7 9f3e 8c97 543d
000000e0: 0197 c13e 6741 713e fa1a 593e 1ffb 7bbe
0.48321557 -0.014888808 0.23205401 0.39293024 0.53577214 0.3338554 0.33175278 0.4576586
0.018192688 -0.2127496 -0.2898896 -0.22159922 0.1521578 -0.09572319 -0.058273103 -0.16008402
-0.29652947 0.17806569 0.10672122 -0.039735433 0.28073263 -0.27955335 0.12293012 0.5519182
0.18412776 0.5537564 0.026457587 0.28496477 0.44399548 -0.06582041 -0.028210865 -0.43013147
0.25654158 0.41807443 0.29217672 0.42420658 0.19136305 0.24290566 0.37035346 0.07711067
-0.040138684 -0.66939837 -0.013409107 -0.13006917 0.27815846 -0.085547596 0.37580127 0.4157263
0.2460155 -0.13148521 0.016421366 -0.0010859186 0.42409712 0.096315004 0.3119489 0.05190234
0.3781052 0.23560105 0.21201697 -0.24607514

layer3.bias f4 [6]
00000000: df0e e43e 61b6 933d e68b 783e 76c7 933d
00000010: eb9c 99be ad1a bb3e
0.44542596 0.072125204 0.24272117 0.072157785 -0.3000253 0.3654379

layer4.weight f4 [1, 6]
00000000: f4be 893e aa8c 6cbe 48fe 113f dfda 833e
00000010: 5d70 723e 9295 0c3f
0.26903498 -0.23100534 0.5702863 0.25752923 0.23675676 0.54915726
