Pytorch/IrisModel/IrisModel.pth (torch, 2780 bytes, 6 tensors)

layer1.weight f4 [6, 4]
0.3747538 1.0051796 -0.7191443 -1.6009818 -0.10070611 -1.0797104 1.2102206 0.82107687
0.8145147 0.3976368 -1.1349195 -1.3303864 -0.20782082 -0.89735276 1.0190576 1.2603503
-0.31132168 -1.0524645 0.96136385 1.3558711 0.779518 0.4327285 -1.0598996 -1.3007132
00000000: bbdf bf3e baa9 803f d719 38bf f9ec ccbf
00000010: 013f cebd f333 8abf 82e8 9a3f 1832 523f
00000020: 0984 503f 0d97 cb3e 0b45 91bf 1a4a aabf
00000030: fbce 54be e9b8 65bf 7b70 823f 2953 a13f
00000040: 8e65 9fbe 28b7 86bf f11b 763f 2f8d ad3f
00000050: 7e8e 473f 978e dd3e caaa 87bf c57d a6bf

layer1.bias f4 [6]
0.43162587 -0.10334865 1.098945 -0.85320646 -1.2024478 0.38231575
00000000: 11fe dc3e 75a8 d3bd 3baa 8c3f bd6b 5abf
00000010: cfe9 99bf e4be c33e

layer2.weight f4 [4, 6]
1.3958806 -1.4060537 0.9790641 -1.3784305 -1.4853377 1.2970637 1.8085692 -0.7955836
1.783976 -1.2282977 -1.5300157 1.4183772 0.5897127 -1.7130799 1.3159659 -1.1714864
-1.0853771 1.3281634 -1.0115218 1.5700434 -0.58821726 1.6207604 1.4091903 -1.0240467
00000000: 37ac b23f 91f9 b3bf f2a3 7a3f 6970 b0bf
00000010: 8c1f bebf 2f06 a63f 327f e73f 5eab 4bbf
00000020: 5359 e43f dc38 9dbf 8ed7 c3bf 628d b53f
00000030: 69f7 163f 3446 dbbf 9271 a83f 44f3 95bf
00000040: a3ed 8abf 4201 aa3f 8c79 81bf 2ff7 c83f
00000050: 6895 16bf 1475 cf3f 5960 b43f f613 83bf

layer2.bias f4 [4]
0.27884948 0.5309215 -0.25429526 0.23864412
00000000: 5cc5 8e3e 79ea 073f fd32 82be 205f 743e

layer3.weight f4 [3, 4]
1.5553775 1.1829114 1.1089302 -1.8586587 -0.007938738 0.46015793 -0.3487778 0.63459665
-1.060121 -1.2161252 -0.9989018 0.93639404
00000000: 9c16 c73f a469 973f 6df1 8d3f 87e8 edbf
00000010: 7b11 02bc d299 eb3e 0193 b2be ed74 223f
00000020: 0cb2 87bf fea9 9bbf 07b8 7fbf 85b7 6f3f

layer3.bias f4 [3]
-1.0722985 -0.07487662 0.47512105
00000000: 1441 89bf ea58 99bd 1143 f33e
